sample_programs/ml_sample_programs/vision_models/mnist/model.onnx (onnx, 252845 bytes, 6 tensors)

StatefulPartitionedCall/sequential/dense/MatMul/ReadVariableOp:0 f4 [1024, 10]
-0.05867758 0.03777564 -0.106958345 -0.3048389 0.020204408 0.07248055 0.1418421 0.061227545
0.13153379 -0.022178693 0.010752093 -0.04171664 0.019804882 0.061117087 -0.030990623 -0.09605149
-0.09504988 0.065034576 -0.070893705 -0.09757675 -0.027522154 -0.05549823 0.13143325 -0.0813848
-0.024412427 -0.0005987978 0.08900235 -0.1746878 -0.052029774 -0.10822687 -0.09325158 -0.10858663
0.06548583 0.06585139 -0.06820343 -0.008698347 -0.12247764 0.06503777 -0.019091116 0.10226886
0.044102196 0.010270511 0.09412372 -0.037356388 0.07573419 0.06808705 0.08667532 -0.028202785
0.045702834 -0.0472229 -0.067453615 0.021081902 0.053657696 0.06411487 0.061559945 0.019639317
-0.047977883 0.0107855145 -0.04292525 -0.060088657 -0.14244233 -0.047930457 0.06309823 0.10324382
-0.013095434 0.033542924 -0.008766 0.09671256 -0.029128492 -0.10268013 0.06196156 -0.08018978
0.0697397 -0.00019075326 0.05249349 0.053343 0.089537345 0.038187142 0.021215279 0.05029389
0.023040716 -0.00067963713 -0.037376408 0.034467183 -0.0030323756 -0.09361304 -0.070862874 0.070596375
0.017832562 -0.04517164 0.024786968 -0.06892736 0.05869483 -0.07210627 0.0150688505 -0.07080352
-0.22116762 0.123514846 0.008200984 -0.26563564 -0.046781015 0.046449736 0.043449372 -0.081793725
0.0370864 0.042553112 0.06356202 -0.076278366 -0.05657973 0.07806218 0.027280785 0.020743968
0.009672738 -0.0148298405 -0.004575057 0.006413803 -0.007989118 0.026498528 0.06439667 -0.05911502
-0.028974762 -0.0054259156 0.057132054 0.06038224 -0.14930567 -0.0958685 -0.010286511 -0.049958937
0.0043741656 0.030531151 -0.034202646 -0.11991833 0.10330022 0.13012108 -0.037559807 0.007915562
-0.16427141 0.08156224 -0.0047826627 -0.05681539 -0.032466736 -0.16444941 0.042910673 0.10089167
0.029559597 -0.14772357 0.07083589 -0.056849163 -0.008713574 0.0066840965 -0.03755641 -0.07122293
-0.03274196 -0.04989925 -0.05503391 -0.073789105 -0.01109314 -0.0748215 0.005964475 0.006449203
-0.017643528 -0.012565399 -0.11779975 -0.080521055 0.03530534 0.042617913 0.015965858 0.024093596
0.02607708 -0.010868894 0.0032230911 0.09957645 -0.01788596 -0.0045692967 0.04895328 0.02128743
-0.0232524 0.059458803 -0.026091855 0.07205912 0.014182109 -0.0011513018 -0.065507784 -0.010218621
-0.09103426 0.044117525 -0.049743447 0.039397676 0.071419455 -0.036038376 0.031865604 0.0074856775
0.042882096 0.071135014 -0.07802025 -0.08395781 -0.09244024 0.03754672 -0.07952891 -0.056506883
0.041068923 0.004451156 0.017855246 0.019947466 -0.0574559 -0.06061336 -0.15208001 0.024359511
0.05741853 0.06886874 0.06879756 0.0010100686 -0.064178266 -0.01030911 -0.013180665 0.09039492
0.06559925 0.0009019063 -0.005436566 -0.06955564 0.09194966 -0.026735164 -0.06331546 -0.03619618
-0.014721435 0.015926797 0.033294544 -0.08983235 0.021899946 0.025671158 -0.1277231 -0.0840562
0.1229982 0.0372454 -0.05702136 -0.09187386 0.083143815 0.01317519 -0.051287297 -0.03756493
0.04745177 0.045772493 0.04612289 -0.03506267 0.018534996 0.03588008 0.041675813 0.11442399
-0.09166137 -0.02086822 -0.054426692 0.090568915 -0.058017734 -0.011989283 -0.03797878 0.001056942
00000000: e757 70bd a1ba 1a3d fa0c dbbd d813 9cbe
00000010: b783 a53c af70 943d 0e3f 113e bcc9 7a3d
00000020: cbb0 063e 17b0 b5bc 8c29 303c 11df 2abd
00000030: d93d a23c e955 7a3d 0ce0 fdbc a5b6 c4bd
00000040: 83a9 c2bd d930 853d b830 91bd 52d6 c7bd
00000050: 2476 e1bc 1d52 63bd 7096 063e 13ad a6bd
00000060: 92fc c7bc a4f8 1cba dd46 b63d 5ce1 32be
00000070: 2c1d 55bd 0da6 ddbd affa bebd ab62 debd
00000080: 6f1d 863d 18dd 863d 3dae 8bbd 8383 0ebc
00000090: 8fd5 fabd 8632 853d f964 9cbc 5672 d13d
000000a0: 81a4 343d a545 283c f0c3 c03d 0303 19bd
000000b0: 871a 9b3d 3971 8b3d d582 b13d 8709 e7bc
000000c0: e532 3b3d cd6c 41bd 1f25 8abd f4b3 ac3c
000000d0: 2cc8 5b3d a84e 833d 4826 7c3d a2e2 a03c
000000e0: 7584 44bd bab5 303c 63d2 2fbd 861f 76bd
000000f0: 67dc 11be ba52 44bd a539 813d 7f71 d33d
00000100: 3b8e 56bc 4e64 093d 459f 0fbc 3c11 c63d
00000110: e09e eebc f649 d2bd 68cb 7d3d 8a3a a4bd
00000120: b0d3 8e3d f004 48b9 6a03 573d 317e 5a3d
00000130: 5b5f b73d 1f6a 1c3d aacb ad3c f700 4e3d
00000140: e2bf bc3c ad29 32ba 0118 19bd 762d 0d3d
00000150: d2ba 46bb 32b8 bfbd 8e20 91bd d594 903d
00000160: 9815 923c e605 39bd 0a0e cb3c ca29 8dbd
00000170: fd69 703d 74ac 93bd 57e3 763c 7001 91bd
00000180: c479 62be 5af5 fc3d 6c5d 063c 6501 88be
00000190: 739d 3fbd 1442 3e3d f8f7 313d 7883 a7bd
000001a0: e9e7 173d 2c4c 2e3d ce2c 823d d537 9cbd
000001b0: 26c0 67bd 10df 9f3d f47b df3c 41ef a93c
000001c0: 677a 1e3c dcf8 72bc 5cea 95bb e12a d23b
000001d0: cae4 02bc 7113 d93c 67e2 833d 9722 72bd
000001e0: 7b5c edbc e1cb b1bb 4d03 6a3d 5e53 773d
000001f0: 96e3 18be b456 c4bd c188 28bc bea1 4cbd
00000200: 2955 8f3b 771c fa3c 1318 0cbd be97 f5bd
00000210: 118f d33d 763e 053e 50d8 19bd 46b0 013c
00000220: c436 28be 1b0a a73d e2b7 9cbb 41b7 68bd
00000230: d7fb 04bd 6d65 28be 1ac3 2f3d 4ba0 ce3d
00000240: f826 f23c d944 17be 6812 913d abda 68bd
00000250: 61c3 0ebc 4406 db3b c0d4 19bd 54dd 91bd
00000260: 6f1c 06bd 2863 4cbd 3d6b 61bd be1e 97bd
00000270: 00c0 35bc 043c 99bd a571 c33b d653 d33b
00000280: 2989 90bc 1adf 4dbc ff40 f1bd 39e8 a4bd
00000290: 559c 103d 1f90 2e3d d5ca 823c ef5f c53c
000002a0: 9a9f d53c 7213 32bc 7f3a 533b bdee cb3d
000002b0: 9485 92bc 0aba 95bb 3c83 483d fa62 ae3c
000002c0: d17b bebc 138b 733d 96be d5bc bb93 933d
000002d0: 145c 683c 47e7 96ba f228 86bd 016c 27bc
000002e0: 2c70 babd 94b4 343d c9bf 4bbd 755f 213d
000002f0: 5d44 923d fa9c 13bd 8285 023d 6a4a f53b
00000300: 23a5 2f3d 3caf 913d 15c9 9fbd 13f2 abbd
00000310: 4f51 bdbd 97ca 193d 0ee0 a2bd c373 67bd
00000320: e337 283d 01db 913b 2a45 923c de68 a33c
00000330: e156 6bbd b745 78bd ddba 1bbe 998d c73c
00000340: b12f 6b3d 0e0b 8d3d bce5 8c3d 4764 843a
00000350: e56f 83bd 8be7 28bc b7f3 57bc f920 b93d
00000360: e658 863d e86d 6c3a 3925 b2bb 3073 8ebd
00000370: 1a50 bc3d b403 dbbc 89ab 81bd 7242 14bd
00000380: 2c32 71bc ea78 823c dc5f 083d 06fa b7bd
00000390: 8467 b33c 524c d23c d8c9 02be a825 acbd
000003a0: 7be6 fb3d a28e 183d 3b8f 69bd 5d28 bcbd
000003b0: 4e47 aa3d c1dc 573c a112 52bd afdd 19bd
000003c0: ca5c 423d f07b 3b3d 5beb 3c3d e09d 0fbd
000003d0: b4d6 973c fef6 123d 42b4 2a3d 2057 ea3d
000003e0: f5b8 bbbd d4f3 aabc 86ee 5ebd 327c b93d
000003f0: 01a4 6dbd b36e 44bc a38f 1bbd 1789 8a3a

StatefulPartitionedCall/sequential/dense/BiasAdd/ReadVariableOp:0 f4 [10]
0.0007763655 0.018691236 -0.004150868 -0.01760625 -0.0059806462 0.018372118 -0.0034474616 -0.0025289033
0.0046846354 -0.00538972
00000000: 0285 4b3a 5d1e 993c 0104 88bb fb3a 90bc
00000010: 4cf9 c3bb 2081 963c cfee 61bb f5bb 25bb
00000020: 9281 993b 409c b0bb

StatefulPartitionedCall/sequential/conv2d_1/Conv2D/ReadVariableOp:0 f4 [64, 32, 5, 5]
-0.07468256 -0.041503657 -0.13630931 -0.18428512 -0.050293613 -0.04829133 -0.028209172 -0.1310346
-0.124767765 -0.024167236 -0.03286803 -0.07544504 -0.10067761 -0.009771167 0.005086144 -0.07138102
-0.031201592 -0.111795686 -0.05329188 0.02921453 -0.024831343 -0.008754749 0.03521035 0.0756077
0.039131615 -0.08892411 -0.02357479 -0.045248974 -0.02750157 -0.0190448 -0.063939214 0.0021226988
0.009359815 0.0022544449 -0.11045578 0.009387067 -0.03622709 0.020393543 0.026203549 -0.051925763
-0.06183681 -0.056677636 0.0018844695 0.11245231 -0.006111066 -0.0653371 0.028483754 0.04090549
0.061994422 0.03454227 -0.00479296 0.040328536 -0.07150608 -0.10383934 0.019991387 -0.008666646
0.060932897 -0.045393378 -0.024165047 -0.030063702 0.0149659505 -0.010172465 -0.054997828 -0.07135951
0.0042802775 -0.064224906 0.04355913 -0.039816536 -0.10877203 -0.0007752965 -0.027038695 0.03247795
-0.0049121217 -0.028566793 -0.020145454 -0.0399246 -0.06155198 0.026527096 0.06285802 -0.024443645
-0.03869907 -0.05595745 0.049828663 0.062462635 -0.018603597 -0.038860574 -0.01777501 0.036507618
-0.01885879 -0.033388417 -0.024966413 0.033360586 0.05569593 -0.056200378 -0.051827922 0.021970078
0.039461557 0.0081564775 0.06048323 0.013333466 -0.103063874 -0.037728574 0.015780425 0.03129771
-0.019506859 -0.086204894 -0.062566355 0.009707637 0.06326726 0.00066613575 -0.09930714 -0.051567864
0.019734865 0.051775467 -0.072419055 -0.083977334 -0.0035875672 0.032191206 0.03754693 -0.044545036
-0.0018631452 -0.04621297 0.047185853 -0.022884624 0.020990763 -0.01001281 -0.033219732 0.060523413
0.029599346 -0.0064984546 0.042298775 0.038136315 0.0375222 -0.014121658 -0.07587572 0.0042372365
0.036609896 0.0293657 -0.06618074 -0.014901528 -0.0272476 0.05660001 0.026081694 -0.06747575
-0.05272853 -0.00552953 0.018086143 0.014509287 -0.074851505 -0.04692357 -0.14464776 -0.08246567
-0.076406844 -0.13127746 -0.11210229 -0.11875854 0.042629246 0.009271884 -0.114713326 -0.012026915
-0.19265696 -0.01500581 0.0198415 -0.12050748 -0.02034003 -0.15469068 -0.0003249257 0.094312795
-0.011277457 -0.0075210813 -0.06402858 0.023765108 0.09769407 0.036561806 0.023319168 0.00029338006
-0.034042194 0.054664604 0.032119397 0.107659556 -0.09582341 -0.04639616 0.10117078 0.011568921
0.07810137 -0.0608334 -0.03216212 0.036704894 -0.120649606 0.08899021 -0.017849945 -0.028277948
-0.059314385 -0.09545974 0.020472422 0.004002268 -0.042317074 -0.15483268 -0.039930098 0.011561306
-0.0041282605 0.012960453 -0.011335211 -0.0529129 -0.08917754 0.008267329 0.03312679 -0.010458298
-0.04466986 -0.052000776 0.018128566 -0.007068431 -0.004046752 -0.0021590714 -0.06384418 -0.057200283
-0.04300324 0.084009536 0.11817896 -0.033571973 -0.056919537 0.051769197 0.014744188 0.063105024
0.003589243 -0.019442093 -0.0033522076 -0.06744983 -0.1036454 -0.011445522 0.01474425 0.024736261
-0.03713903 -0.035987668 -0.050368052 -0.046926357 0.015272962 -0.11627022 -0.069655746 -0.038295466
-0.03703238 0.05741484 -0.025899116 -0.05026689 0.021989128 -0.042132504 0.08516886 0.060905125
-0.006267994 0.023738118 -0.03399053 0.009852036 0.029241785 0.061352536 0.025116576 -0.10777094
00000000: 2cf3 98bd bdff 29bd ab94 0bbe 3db5 3cbe
00000010: ad00 4ebd 21cd 45bd ec16 e7bc ef2d 06be
00000020: 3e86 ffbd 5efa c5bc a1a0 06bd ee82 9abd
00000030: 1030 cebd 3f17 20bc aba9 a63b 3630 92bd
00000040: 7b9a ffbc 23f5 e4bd 9648 5abd 4f53 ef3c
00000050: 1a6b cbbc 1470 0fbc ba38 103d 36d8 9a3d
00000060: 7948 203d d81d b6bd eb1f c1bc fd56 39bd
00000070: f94a e1bc d703 9cbc 90f2 82bd fa1c 0b3b
00000080: e959 193c 4fbf 133b a436 e2bd 36cc 193c
00000090: db62 14bd 5c10 a73c d3a8 d63c 1cb0 54bd
000000a0: 9848 7dbd cf26 68bd 4e00 f73a 664d e63d
000000b0: 563f c8bb 75cf 85bd c356 e93c 848c 273d
000000c0: dded 7d3d 327c 0d3d 430e 9dbb 892f 253d
000000d0: c871 92bd b8a9 d4bd fac4 a33c 8cfe 0dbc
000000e0: c694 793d 68ee 39bd c7f5 c5bc 2748 f6bc
000000f0: bf33 753c 69aa 26bc 6745 61bd ef24 92bd
00000100: 9241 8c3b 5988 83bd 0f6b 323d aa16 23bd
00000110: dfc3 debd 443d 4bba 4180 ddbc 9907 053d
00000120: ddf5 a0bb e804 eabc 1408 a5bc fa87 23bd
00000130: ee1d 7cbd 5a4f d93c b5bb 803d 0a3e c8bc
00000140: eb82 1ebd a433 65bd 2419 4c3d d2d8 7f3d
00000150: 9266 98bc 442c 1fbd e69c 91bc 0389 153d
00000160: c07d 9abc 4bc2 08bd 5d86 ccbc 1ca5 083d
00000170: 6a21 643d 5e32 66bd 8449 54bd 98fa b33c
00000180: 71a2 213d bfa2 053c 43bd 773d 9c74 5a3c
00000190: 2713 d3bd 4789 1abd f345 813c 0732 003d
000001a0: d9cc 9fbc 318c b0bd ca22 80bd c80c 1f3c
000001b0: 4492 813d 9d9f 2e3a 8b61 cbbd d338 53bd
000001c0: 03ab a13c 8312 543d 7150 94bd 4ffc abbd
000001d0: 641d 6bbb edda 033d cfca 193d db74 36bd
000001e0: c734 f4ba d049 3dbd f445 413d 8978 bbbc
000001f0: d2f4 ab3c c50c 24bc 6a11 08bd 66e7 773d
00000200: 547a f23c fdf0 d4bb 7b41 2d3d d334 1c3d
00000210: e1b0 193d 875e 67bc bb64 9bbd 84d8 8a3b
00000220: 42f4 153d 5690 f03c c589 87bd 8a25 74bc
00000230: 5c36 dfbc 69d5 673d 47a9 d53c ba30 8abd
00000240: dff9 57bd 0f31 b5bb 6429 943c 5cb8 6d3c
00000250: bf4b 99bd ee32 40bd 8b1e 14be c3e3 a8bd
00000260: 317b 9cbd 996d 06be e395 e5bd ad37 f3bd
00000270: 019c 2e3d 1ae9 173c d2ee eabd 8a0c 45bc
00000280: de47 45be eeda 75bc a48a a23c a0cc f6bd
00000290: 22a0 a6bc 3c67 1ebe ca5a aab9 1127 c13d
000002a0: 15c5 38bc 6773 f6bb 6b21 83bd 0baf c23c
000002b0: d413 c83d d5c1 153d d707 bf3c ced0 9939
000002c0: d46f 0bbd fee7 5f3d a18f 033d 9d7c dc3d
000002d0: 103f c4bd e609 3ebd a032 cf3d 928b 3d3c
000002e0: 9cf3 9f3d 712c 79bd 6dbc 03bd df57 163d
000002f0: 2417 f7bd 8040 b63d 0c3a 92bc 28a7 e7bc
00000300: a4f3 72bd 6580 c3bd c8b5 a73c 7525 833b
00000310: ab54 2dbd 758c 1ebe be8d 23bd a26b 3d3c
00000320: 5c46 87bb 1458 543c 52b7 39bc 32bb 58bd
00000330: b7a2 b6bd b173 073c f5af 073d 4859 2bbc
00000340: bef7 36bd c4fe 54bd 5c82 943c 4c9e e7bb
00000350: 9e9a 84bb 357f 0dbb bdc0 82bd d84a 6abd
00000360: 2a24 30bd 310d ac3d d007 f23d c482 09bd
00000370: 7624 69bd f00b 543d 9b91 713c 353d 813d
00000380: 8139 6b3b 0645 9fbc b6b0 5bbb 2323 8abd
00000390: 0a44 d4bd 0086 3bbc de91 713c b3a3 ca3c
000003a0: 181f 18bd ce67 13bd bb4e 4ebd da35 40bd
000003b0: 723b 7a3c 151f eebd aca7 8ebd b5db 1cbd
000003c0: 44af 17bd d32b 6b3d 622a d4bc a8e4 4dbd
000003d0: 8b22 b43c 2293 2cbd 036d ae3d a777 793d
000003e0: bf63 cdbb 7176 c23c a739 0bbd 6f6a 213c
000003f0: 788c ef3c cc4c 7b3d 47c1 cd3c 03b7 dcbd

StatefulPartitionedCall/sequential/conv2d_1/BiasAdd/ReadVariableOp:0 f4 [64]
-0.012626047 0.001827413 0.038794406 -0.016339503 -0.016029388 -0.03314459 -0.0052641714 -0.0010284595
-0.02213051 0.0268304 -0.011998916 -0.0235734 0.0050222455 0.0008120914 0.040070027 -0.027075956
0.0019421157 -0.03160404 -0.008335182 0.013475272 -0.005090986 -0.039806712 -0.014213943 0.0068770275
-0.011832125 -0.009284417 0.03621387 0.0046253703 0.006887322 -0.0070096003 -0.024455048 -0.03286099
-0.022487724 0.031379025 0.0044368203 -0.0004988543 0.017935872 0.012992483 -0.0012232043 0.0013179544
-0.009874724 -0.012272031 0.0009548071 0.0005619008 0.0138882985 -0.017845444 -0.007522468 0.021684056
0.038143307 0.004329 0.015431968 -0.0012627206 -0.008136885 -0.039841287 0.0061836787 -0.010814775
0.018397221 -0.0079238415 -0.01237416 -0.010144883 0.01865676 0.009477682 -0.0009518211 0.0037366806
00000000: 7bdd 4ebc ce85 ef3a e2e6 1e3d 6cda 85bc
00000010: 1050 83bc 9fc2 07bd 127f acbb 60cd 86ba
00000020: 0b4b b5bc 6dcb db3c 1a97 44bc 011d c1bc
00000030: a691 a43b 88e2 543a 7820 243d 65ce ddbc
00000040: 978e fe3a 3d73 01bd 4a90 08bc 63c7 5c3c
00000050: 49d2 a6bb 5d0c 23bd 99e1 68bc b058 e13b
00000060: 87db 41bc ab1d 18bc ff54 143d 6b90 973b
00000070: 0baf e13b cab0 e5bb f455 c8bc 3f99 06bd
00000080: 2d38 b8bc 4b87 003d bf62 913b 8cc5 02ba
00000090: 40ee 923c 6cde 543c ed53 a0ba 36bf ac3a
000000a0: 98c9 21bc a110 49bc 054c 7a3a 864c 133a
000000b0: bf8b 633c 9c30 92bc 097f f6bb c3a2 b13c
000000c0: 283c 1c3d 49da 8d3b 5dd6 7c3c df81 a5ba
000000d0: 9250 05bc 9e30 23bd 75a0 ca3b 7430 31bc
000000e0: c5b5 963c 00d3 01bc fdbc 4abc b936 26bc
000000f0: 10d6 983c 4848 1b3c a283 79ba 19e3 743b

StatefulPartitionedCall/sequential/conv2d/Conv2D/ReadVariableOp:0 f4 [32, 1, 5, 5]
0.11671443 0.10023412 0.17645422 0.07916269 0.16043346 -0.001154534 -0.033243764 0.10408117
0.059260543 -0.020417454 -0.13604636 -0.12945482 -0.19711344 -0.06404497 -0.021074025 -0.12181279
-0.033734594 -0.1637637 -0.09141373 0.034638856 0.083012424 -0.013325079 0.09308597 -0.02635623
0.082849264 0.009049361 -0.07138694 -0.13274676 -0.06810645 -0.06384884 0.035172395 -0.1243559
-0.17053686 -0.109983966 -0.12667947 0.09892193 0.098743245 0.07780379 0.08828677 0.09599815
0.11316333 0.15073991 0.024358902 0.071720846 0.089519404 0.049064536 -0.017873958 0.108405516
-0.05833946 -0.053096373 0.10954075 0.07883186 0.13732095 0.074402906 -0.12901518 0.11727396
0.10002773 -0.016642988 0.05150206 -0.045621406 -0.06413809 -0.14123717 -0.07162893 -0.020700976
0.0966237 -0.2116813 -0.08517041 0.055996694 0.0852618 0.13235778 -0.111893125 -0.011210251
-0.095808245 0.053264756 -0.0066787763 0.071019724 -0.051116228 0.022915207 -0.0038629025 0.027074493
-0.05201366 0.065759435 0.13273641 0.12532096 -0.08262945 0.08142803 0.11735198 0.059296828
-0.06735739 -0.01711742 -0.029501157 0.06609832 0.0009714662 -0.007523385 -0.116311155 0.06064785
-0.063501805 -0.09214007 -0.04218194 -0.123938404 -0.029828941 -0.04066542 0.014796464 0.11850811
0.06438616 0.06297168 0.04534771 0.1588169 0.16026293 0.1202206 0.067778975 0.0054692593
0.030324236 -0.10899005 -0.12864813 0.09348515 0.012899986 -0.1706215 -0.20321806 -0.0912728
-0.015908506 0.016848275 -0.12925185 0.04583522 -0.03565992 0.046427835 0.036883138 0.11048883
0.05468184 -0.0865578 -0.07679516 -0.01379601 0.08735702 0.010306134 0.06605739 -0.085597426
-0.009823762 0.11094008 0.03002615 0.08187635 -0.12055463 0.0062573827 0.093199864 -0.019634904
0.014860363 -0.07048663 0.0766752 0.08429207 0.083746314 0.06304695 0.037973378 0.123795636
0.013153242 -0.017378382 -0.117230095 -0.017817471 0.058402833 0.043877926 -0.041505963 -0.26100022
-0.115653716 0.10814866 0.1579841 0.04322358 -0.2377301 -0.18592323 -0.04044306 0.21600986
0.17795038 -0.08383615 -0.12507677 -0.16294351 0.03545678 0.12964876 0.07529775 0.07605953
-0.16995661 -0.24897297 -0.0368794 0.15743613 -0.21997024 -0.25840282 0.0023045067 0.26927742
0.13934635 -0.23408805 0.09974151 0.24395789 0.10300942 -0.023104843 -0.0071555534 0.06979544
0.17209023 -0.031134665 -0.13218014 0.012300253 0.14114563 0.054697085 -0.17447652 -0.1589426
-0.04617266 -0.018646458 -0.12916598 -0.13079314 0.00027754816 0.09498214 -0.07128163 -0.091692634
-0.12551905 -0.0111800255 0.12929326 0.01021506 0.04126222 -0.1460482 -0.17980416 0.029073128
0.13738868 0.12436038 -0.018584616 0.029120166 0.035257585 0.12421062 0.1289765 0.039717153
0.0814827 -0.023745459 0.06765726 0.051516455 0.0078012506 0.028967777 0.05537888 0.039066497
0.1361868 0.18227443 0.1272448 -0.1445756 -0.068518765 -0.09962232 0.051469646 0.050554354
-0.080939956 -0.03412453 -0.13946216 -0.1098188 0.06980979 -0.058054894 -0.10680535 -0.034585293
-0.04839381 0.015424019 0.009805076 0.124161266 0.08264979 0.07353735 0.025011636 0.13310567
00000000: fa07 ef3d 8c47 cd3d 6ab0 343e 0c20 a23d
00000010: ab48 243e bc53 97ba 9d2a 08bd 8228 d53d
00000020: 2fbb 723d 8142 a7bc bd4f 0bbe ce8f 04be
00000030: 1bd8 49be 022a 83bd 6fa3 acbc fc78 f9bd
00000040: 492d 0abd acb1 27be 1f37 bbbd 79e1 0d3d
00000050: 6b02 aa3d 6f51 5abc dba3 be3d 05e9 d7bc
00000060: e0ac a93d c543 143c 5133 92bd c4ee 07be
00000070: 657b 8bbd 2ec3 82bd ee10 103d 4eae febd
00000080: 37a1 2ebe 463f e1bd 43b8 01be 9597 ca3d
00000090: e639 ca3d 9857 9f3d b2cf b43d ae9a c43d
000000a0: 2dc2 e73d 905b 1a3e 528c c73c 61e2 923d
000000b0: f355 b73d e5f7 483d 686c 92bc b603 de3d
000000c0: 5cf5 6ebd 957b 59bd e756 e03d 9972 a13d
000000d0: dd9d 0c3e 8d60 983d 8e1c 04be 542d f03d
000000e0: 57db cc3d e056 88bc d3f3 523d 83dd 3abd
000000f0: d55a 83bd 7aa0 10be 30b2 92bd 1895 a9bc
00000100: a5e2 c53d fcc2 58be d36d aebd ca5c 653d
00000110: bd9d ae3d cc88 073e 3928 e5bd 33ab 37bc
00000120: 1d37 c4bd 252c 5a3d a3d9 dabb ca72 913d
00000130: 405f 51bd acb8 bb3c c028 7dbb 54cb dd3c
00000140: 470c 55bd e2ac 863d 0eec 073e 2354 003e
00000150: a139 a9bd bdc3 a63d 3c56 f03d 3be1 723d
00000160: acf2 89bd d539 8cbc 69ac f1bc 8e5e 873d
00000170: fea9 7e3a ba86 f6bb 8b34 eebd e169 783d
00000180: 3c0d 82bd efb3 bcbd f8c6 2cbd 6bd3 fdbd
00000190: d35b f4bc c990 26bd de6c 723c 61b4 f23d
000001a0: e4dc 833d 4cf7 803d 85be 393d e6a0 223e
000001b0: f71b 243e 3836 f63d b4cf 8a3d 7937 b33b
000001c0: 886a f83c 2d36 dfbd 56bc 03be 2475 bf3d
000001d0: 765a 533c 67b7 2ebe 6518 50be 3ced babd
000001e0: 8e52 82bc 6505 8a3c 995a 04be b6bd 3b3d
000001f0: 2310 12bd 1d2b 3e3d c612 173d f847 e23d
00000200: 11fa 5f3d 3745 b1bd c846 9dbd a908 62bc
00000210: 3de8 b23d 0fdb 283c 1949 873d b44d afbd
00000220: d8f3 20bc 8d34 e33d 67f9 f53c caae a73d
00000230: 59e5 f6bd bb0a cd3b 92df be3d 61d9 a0bc
00000240: e178 733c 4b5b 90bd e307 9d3d 52a1 ac3d
00000250: 3083 ab3d c21e 813d f989 1b3d 9188 fd3d
00000260: b280 573c 1c5d 8ebc 5516 f0bd f2f5 91bc
00000270: cf37 6f3d 57b9 333d 2802 2abd d2a1 85be
00000280: dbdb ecbd 0b7d dd3d 95c6 213e 350b 313d
00000290: 856f 73be a962 3ebe 9fa7 25bd b031 5d3e
000002a0: a038 363e 4ab2 abbd 2014 00be aada 26be
000002b0: 213b 113d a5c2 043e b535 9a3d 19c5 9b3d
000002c0: 1b09 2ebe c5f2 7ebe db0e 17bd f036 213e
000002d0: e13f 61be 604d 84be 3507 173b bbde 893e
000002e0: cfb0 0e3e c7b4 6fbe 4745 cc3d 19d0 793e
000002f0: 9af6 d23d 5e46 bdbc 2279 eabb e9f0 8e3d
00000300: 6c38 303e 200e ffbc 3b5a 07be 0087 493c
00000310: 7b88 103e 0d0a 603d f9a9 32be d9c1 22be
00000320: 8b1f 3dbd 75c0 98bc 1644 04be a3ee 05be
00000330: e283 9139 ff85 c23d 1afc 91bd 59c9 bbbd
00000340: 1188 00be 6d2c 37bc 7465 043e 115d 273c
00000350: 9302 293d a98d 15be 951e 38be c52a ee3c
00000360: 9eaf 0c3e a8b0 fe3d c43e 98bc 6a8d ee3c
00000370: 426a 103d 2362 fe3d 6a12 043e 74ae 223d
00000380: 67e0 a63d d685 c2bc e48f 8a3d eb02 533d
00000390: a2a1 ff3b d54d ed3c f7d4 623d 3104 203d
000003a0: 8d74 0b3e 26a6 3a3e 764c 023e a00b 14be
000003b0: 9153 8cbd c906 ccbd d6d1 523d 1512 4f3d
000003c0: d9c3 a5bd 2ac6 0bbd 2bcf 0ebe aee8 e0bd
000003d0: 6ff8 8e3d f8ca 6dbd c3bc dabd 4fa9 0dbd
000003e0: 9638 46bd 06b5 7c3c 78a5 203c 4348 fe3d
000003f0: 4b44 a93d c09a 963d 34e5 cc3c da4c 083e

StatefulPartitionedCall/sequential/conv2d/BiasAdd/ReadVariableOp:0 f4 [32]
-0.014556766 -0.0065066884 -0.014089671 -0.03377879 -0.010121236 -0.060361292 -0.006641517 -0.0075630844
-0.008900627 -0.017585699 -0.018196369 -0.01884358 0.050831735 -0.0035163984 -0.04388842 0.0063533313
-0.0027904152 -0.03135084 -0.041534543 0.0009170733 -0.05178766 0.038995754 -0.043344643 -0.014428689
0.042680703 -0.0061421418 -0.026903832 0.042638373 -0.0034309337 0.039595507 0.052696478 0.05598415
00000000: 807f 6ebc 0f36 d5bb 5dd8 66bc a15b 0abd
00000010: 8ad3 25bc 673d 77bd 15a1 d9bb c0d3 f7bb
00000020: efd3 11bc e20f 90bc 8d10 95bc da5d 9abc
00000030: f034 503d 6073 66bb 58c4 33bd 9b2f d03b
00000040: 66df 36bb bd69 00bd 2020 2abd bf67 703a
00000050: 4c1f 54bd 03ba 1f3d 278a 31bd 4f66 6cbc
00000060: f6d1 2e3d 0544 c9bb 6d65 dcbc 93a5 2e3d
00000070: 84d9 60bb e62e 223d 43d8 573d a34f 653d
