sample_programs/ml_sample_programs/vision_models/cnn-fmnist/model.onnx (onnx, 252834 bytes, 6 tensors)

StatefulPartitionedCall/sequential/dense/MatMul/ReadVariableOp:0 f4 [1024, 10]
00000000: 81d9 cd3d 73f4 3fbe c336 003e 4301 093e
00000010: ebcc 0fbe 1577 a03d 9628 debd 7b84 0bbd
00000020: e4e4 29be 7a7b 4ebc 5537 683d fea7 053d
00000030: e2f6 ed3a 0561 83bd 7ba3 ddbc 177b 4ebd
00000040: 0b4a 26bd 9a11 873d eb15 c93d caf0 1c3d
00000050: aecd 8e3d 66b1 003e 52fb b73d 5e50 8d3d
00000060: d6d8 cbbd 0b48 a1be f14c ce3c bcef e53d
00000070: d651 273d 01ec 01be 46cc 323d 3f40 7bbd
00000080: 829e a53d 4398 01be 2705 b03d 9473 18bc
00000090: 54e4 4bbe 907e 6bbd a278 413e ab10 05bd
000000a0: 463d 893d c268 9dbc e576 ddbc b822 cebc
000000b0: 4dec 89bd 2644 25bc af37 883b f9c8 9cbb
000000c0: 8720 7bbd c9d2 2d3c bc49 18bd 360f c4bd
000000d0: 3a17 dc3d 1176 b9be d71b 593e 6e71 37bc
000000e0: ee25 20be aa74 25be 71d6 d73d 2e13 ffbd
000000f0: 08f7 883d fb3d bcbc e10b 653d 1628 1d3d
00000100: 6074 1f3d 1a02 793d bd8e 703d 69d4 13bd
00000110: cf6e c23c a6dc 733b b91f 1d3d 4a27 97be
00000120: 1843 4bbd 15ac 0bbe cc6d 853c 8271 013d
00000130: 7205 eabd 17e7 a53d 3cb8 3c3d ab98 80bc
00000140: a5ff 8bbd fcbd 753d ee2e 69bd 78b1 093e
00000150: f8ed 7ebc b435 8cbd 258f ec3d 0b6b 80bd
00000160: add1 8f3d e6ad 9bbd 573d d3bc c163 40bd
00000170: 126f 903d d2b7 1a3e fe40 663d 5b7e 96be
00000180: e131 febd 6d38 73bd 00dc 87bd f7ce d7bd
00000190: 5747 303d 589e c4be ef4f 57be 1842 35be
000001a0: 7d76 8cbc 1bcb cdbb f8d0 a9b9 0200 dcbc
000001b0: 6b19 413e 4aaf 033d 5593 fe3d 31a7 ff3d
000001c0: 5f94 8abd 11bf b23d 7024 bebc 2ee0 99be
000001d0: eb30 e23a 5715 313d 4745 743d 6b76 afbd
000001e0: 557f 0fbe 7391 55be 2c11 293c 7c55 eabd
000001f0: 0487 ad3d cbe1 843e 7619 adbd 2bcd c1bd
00000200: 2d36 2cbe 46f8 33bc 59d5 93bd aeb0 213e
00000210: 5ff0 ffbb 3cf5 86bd b13e 0abd 6f59 aebe
00000220: 31f1 133e ce2a 1ebe f688 88bd 21ad b4bd
00000230: e83f 64bd 4cac ef3c 12b7 08be c8c3 063e
00000240: 0651 e93b 1195 b63d f223 933c 8832 073d
00000250: c6ad 21be e790 d53c b2a8 5a3d ac1e d93d
00000260: 3552 a3bd 9f57 8ebd 5b7a 153e b312 8ebe
00000270: 46bc 23bd 00f4 57be 96ac 683e 0d2a 49be
00000280: 6d3d a1bd 89de 8fbb 07a2 803d 99c7 a3bc
00000290: 0494 82bd 7914 bcbb 6fed b03c 3633 463a
000002a0: 1095 d73c 373a 6a3d c4b5 5ebd 1ed7 c73c
000002b0: 3dd6 cc3d cb5b 7c3d 8c99 7e3d fad0 aabe
000002c0: 30cb e2bd 8e67 05be b61a 6ebe 65a3 0ebe
000002d0: 51e6 bd3d b755 c43d 0c9c 2ebe 99aa 97bd
000002e0: 7f3e 553d 5526 013e c9ee 083e 4487 41be
000002f0: e2ce d73d 2398 2abe a240 3cbc 8fb3 7a3e
00000300: f926 e43d 5c59 45be 692e 70bd eb60 30be
00000310: dfec cf3c 1d00 62bd ebf9 0d3e c238 4fbe
00000320: 7d88 37bd 946f eb3c eb6c 19be 0cf8 753d
00000330: b155 173c 9653 7abe 420f 073e 74ff 8d3e
00000340: c995 0e3d 88e2 81bd 964f c2ba 7a52 563a
00000350: 0a4a ac3d 330c ca3c 6f02 c73d d57e cfbd
00000360: 2956 a43d 433c 56be 6591 12bc 5be2 bbbd
00000370: 2e2a 03bc f53d dcbc 2b96 01bc d902 4abd
00000380: 51a7 663d 100e 013d 2287 dfbb 19dd 503d
00000390: 77b6 8bbd c83c cf3d 1c37 273d 269b de3d
000003a0: 21f1 72bd 8faa 37bc b86b 0a3e 22f0 10be
000003b0: 706d 17be 6121 74be 566a e63d 611c bc3d
000003c0: aef3 08be bea2 0bbe f176 c33b 83ff 86bc
000003d0: 2ceb 0b3e a0bb 4b3d 6837 abbd 1f33 fe3c
000003e0: 65ea 5bbc 3d8a 773c 2053 2b3e e3ef 39be
000003f0: f0bd a4bc 0288 e0bd 6aa8 ee3d 6322 34be
0.10051251 -0.18745594 0.1252089 0.13379388 -0.14043014 0.07835213 -0.10847585 -0.03406189
-0.16591221 -0.012602681 0.056693394 0.032630913 0.0018155242 -0.064149894 -0.027055493 -0.050410356
-0.040597957 0.06595154 0.09818634 0.03831557 0.06972824 0.12567672 0.089834824 0.069000944
-0.099534675 -0.31500277 0.025183173 0.11227366 0.04084953 -0.12687685 0.04365184 -0.061340567
0.080868736 -0.1265574 0.08594733 -0.0093049 -0.19911319 -0.057493746 0.18893674 -0.0324866
0.0670114 -0.019214991 -0.027034232 -0.02516304 -0.06734524 -0.010087049 0.0041570286 -0.0047847
-0.061310317 0.010609337 -0.037179694 -0.09573214 0.107466176 -0.3622289 0.21202026 -0.011196477
-0.15639469 -0.16157785 0.10538948 -0.1245483 0.066877425 -0.022978773 0.05591953 0.038368307
0.038929343 0.06079302 0.058729876 -0.036091242 0.023734478 0.0037210374 0.03836033 -0.29522163
-0.049624532 -0.13639863 0.016287707 0.03160239 -0.1142682 0.081007175 0.046074137 -0.015697798
-0.0683587 0.059995636 -0.05692952 0.13446605 -0.015559666 -0.068461806 0.1155074 -0.06270417
0.07022414 -0.07601528 -0.025786085 -0.046970133 0.07052435 0.15109184 0.056214325 -0.29393277
-0.124118574 -0.059379984 -0.066337585 -0.10537522 0.043036785 -0.38402057 -0.21026586 -0.17700994
-0.017146343 -0.0062803156 -0.00032389886 -0.026855472 0.18857352 0.03214959 0.12430445 0.12483061
-0.06766581 0.08727849 -0.023210734 -0.30053848 0.001725701 0.043233242 0.05963638 -0.08567508
-0.14013417 -0.20856266 0.0103190355 -0.11442086 0.08473018 0.25953516 -0.08452122 -0.09462961
-0.16817541 -0.010984486 -0.07218427 0.15790054 -0.007810637 -0.065897435 -0.033751193 -0.34052607
0.14447476 -0.15446016 -0.06666748 -0.08822084 -0.05572501 0.029256962 -0.13351086 0.13160622
0.0071202544 0.08915151 0.017961476 0.033007175 -0.15788946 0.026070071 0.053383537 0.10601553
-0.07974664 -0.06950306 0.14597456 -0.2774864 -0.039974473 -0.21089172 0.22722086 -0.19644947
-0.07873044 -0.004390542 0.06280904 -0.019992637 -0.06375888 -0.005739745 0.021597592 0.00075607316
0.026316196 0.057184424 -0.054372564 0.024394568 0.100018 0.061610978 0.062158152 -0.3336256
-0.11073911 -0.13027784 -0.23252377 -0.13929518 0.09272445 0.09586661 -0.17051715 -0.07405586
0.052061554 0.12612279 0.1337234 -0.18899256 0.10537507 -0.16659598 -0.011490019 0.24482559
0.11140246 -0.19272369 -0.05863801 -0.17224471 0.025381504 -0.05517589 0.13864867 -0.20236495
-0.0448079 0.028739728 -0.14982955 0.06005101 0.009236739 -0.24445948 0.13189414 0.27733958
0.034810815 -0.063420355 -0.0014824744 0.0008175742 0.08412559 0.02466402 0.09717261 -0.10131613
0.08024246 -0.20921426 -0.008945798 -0.09174033 -0.008005662 -0.026885012 -0.007909338 -0.049319122
0.05631191 0.03150755 -0.006821529 0.050992105 -0.06821912 0.10119015 0.04082404 0.10869436
-0.05931199 -0.011210098 0.13517654 -0.14154103 -0.14787841 -0.23840858 0.11250751 0.091851
-0.13374206 -0.136363 0.0059651067 -0.01647926 0.1366393 0.04973948 -0.08360177 0.031030236
-0.013422583 0.015108642 0.16730928 -0.18157916 -0.0201101 -0.109634414 0.11653216 -0.17591242

StatefulPartitionedCall/sequential/dense/BiasAdd/ReadVariableOp:0 f4 [10]
00000000: 63b2 b13c 22ea 05bd 4820 e73d 90fc 323d
00000010: 93b6 3ebe da67 fabd 45cb 3d3d e7c3 b23d
00000020: abca 923c 20ce ddbb
0.021691507 -0.03269399 0.11285454 0.043697894 -0.18624334 -0.12226839 0.04633643 0.08728772
0.017918905 -0.006768957

StatefulPartitionedCall/sequential/conv2d_1/Conv2D/ReadVariableOp:0 f4 [64, 32, 5, 5]
00000000: 17c4 98bc a1d1 85bd 3ef0 acbd 2e55 a9bd
00000010: 8089 0cbe be87 ffbc 9a77 70bd 53ae bdbc
00000020: 8a1f d9bd 7f17 04be ac6e 62bd 6d4f 533c
00000030: ce49 9fbd a272 8bbd 4026 6cbd 0fe3 10bd
00000040: 2afe 2abd 4187 82bd 9d4e c9bc 62b5 b9bd
00000050: e5f9 323c a6eb 853c d434 a93c c782 95bd
00000060: 44d6 1ebd 7a2c f9bc 4552 49bd be23 9c3d
00000070: a24c 05be f6eb b5bd 9428 873c 8ea3 013d
00000080: e934 dd3d 4bdf 1ebd 06b1 eabc 26ee 153e
00000090: c889 e9bb fdf4 d3bb 30c3 3abb cc6d 463d
000000a0: 780a b93d 53ee 903b 4987 a6bb 74cc dcbc
000000b0: c3dd 663d 2cc8 873d 9439 ec3d 9c62 033d
000000c0: 268e 30bd 8252 d93d 3d57 9f3b 44ce 6a3d
000000d0: 30ec 563d bbb7 dbbb 8654 11bd d1d6 bdbb
000000e0: 63a1 cd3c 8654 a33b 9bab 9cbd b54e 84bd
000000f0: da0f 823c efb2 65bd 80c8 b8bd 040c d1bd
00000100: e66d a0bd af02 523c 5fa0 013d 318d 40bd
00000110: 0b82 9d3c 507d 0e3d 0272 1a3d a4a3 133d
00000120: 8a0a babc 84d7 173b 14b3 6cbc 83bf 57bb
00000130: 63a4 77bd a817 5cbc b49f d6bd 943c d1bd
00000140: 95e9 40bd 4fb2 113d d688 4ebd 8939 d6bd
00000150: f303 06be fce3 60bb c119 903c 00f7 ae3c
00000160: cb3e eebc de13 e0bd 462a 9c3c 6b2c b5bc
00000170: f7f9 a13c f681 84bd 9be0 3fbd 42b7 4c3c
00000180: c34e d4bc 71ab 11bd 6500 00bd b2ac b1bd
00000190: 15b6 903d ba45 8d3d 601e 1abd bf80 ffbd
000001a0: 0cb2 0abe a10c 253c 8c3d f63d 31c6 9b3d
000001b0: ac7e 2ebe 180f 86bd 6134 bbbc 263b c2bd
000001c0: f715 0e3e 38b7 77be b395 f1bc 63d3 2cbd
000001d0: a72b d1bd a3cb 193e 738c 09bd f626 0c3e
000001e0: 1fd9 643e 5484 9c3d fe26 913e a65a a2bb
000001f0: e659 f23d 88c8 ee3d b1c5 27be 8154 74be
00000200: 5fec 9dbe b41b 0abf a970 933d 6101 093e
00000210: 7054 18be 15bd 04be 13af 83be 02d9 513d
00000220: b201 333e c9e6 a7bc dbe6 323d b3c7 f3bd
00000230: ddd0 cf3d 49bf 1a3e 9dd6 2abc 0fec 103e
00000240: f0e0 b73c 7142 723e e0fc 043e 6c05 513e
00000250: b4be 833d 42e4 7abd 6d6c c03d f552 9d3d
00000260: ebc9 48bd b2fa 00be b97f adbd 2e67 09bd
00000270: 6268 563d 3288 403d 0aa4 b4bd 07c3 88bd
00000280: becd 07bd 3bf1 50bd fe55 e939 92fa a13d
00000290: c52f 303d 5c08 aabd 76b8 e4bd 7fe4 afbd
000002a0: a789 213e e7a3 4d3d 184c dc3d ecd7 bbbd
000002b0: 981a c43c 4182 063e dc06 8c3c 85af 2e3e
000002c0: 35b3 3a3e bc56 fabd f342 9bbd e675 883d
000002d0: 8b59 603d c892 773d 4edd 933d af94 223b
000002e0: de44 50bd a20e 0cbc 81c6 1dbd 45fc 273e
000002f0: fd4f d8bd 79ac 1f3d 4990 a6bd 0ed4 e2bd
00000300: 6c1f 913d fe06 ddbd 00b7 743e 752a 1d3e
00000310: 34cf c83d 2d83 a93d a749 80bc 59b2 243e
00000320: 81f7 0a3e 4add ddbc 87e3 8dbd d1c9 963d
00000330: 889a 87bd 7bc5 8dbd c0c1 70bd f597 283c
00000340: e753 f43d 0777 96bd deaf d73c f3ce 3d3e
00000350: 1f70 49bc b688 f83d 883f 423d 30fd edbd
00000360: 2d4e be3d 8ee8 bc3c f0e6 4f3d e3d0 523d
00000370: 7ad7 cd3d 4fb6 d43e abe9 583e d046 9e3d
00000380: 6dd9 c03c 5217 29be 6593 4abd efd1 143d
00000390: a5da cebc b53e 2fbe 5da4 a5bc 0f64 abbd
000003a0: 171c 5cbb 8ba5 7ebd 8aa4 35be f37c 3ebd
000003b0: ccbf 4d3c 91ab 19bd 6530 cbbd 21e4 2cbe
000003c0: 74b6 283c 6b39 84bd 96f3 503c c80f 29bd
000003d0: 0909 97bd c374 9f3d af2b 5f3d 999a 873c
000003e0: 08b2 313d 1c75 e03c 7b6f 6ebd 1804 94bd
000003f0: 0359 eb3c d9ba ddbc 1ddf b2bd bc4a 013e
-0.01864819 -0.06534124 -0.0844426 -0.082682 -0.13724327 -0.031192657 -0.05870781 -0.023154413
-0.10601719 -0.12899588 -0.055281326 0.012897355 -0.07777749 -0.06808974 -0.057653666 -0.03537279
-0.041746296 -0.06373454 -0.024573619 -0.09067799 0.010923837 0.016347717 0.020655073 -0.073003344
-0.03877856 -0.030416716 -0.049150724 0.07624005 -0.13017514 -0.088828966 0.016498841 0.03165012
0.108011074 -0.038787168 -0.028648864 0.14641628 -0.0071270205 -0.006468414 -0.0028497688 0.048444554
0.090352 0.0044229417 -0.005082045 -0.02695296 0.056363832 0.06629977 0.1153442 0.032076463
-0.043104313 0.1061144 0.0048626945 0.057325616 0.05247134 -0.006705252 -0.035481 -0.0057934304
0.02510137 0.004984441 -0.07649919 -0.06460325 0.0158767 -0.056078847 -0.09022617 -0.1020737
-0.078334615 0.012818023 0.031647082 -0.04700965 0.019227048 0.034787476 0.037706383 0.03604473
-0.022710104 0.0023169229 -0.014446992 -0.0032920546 -0.060459506 -0.013433374 -0.1047968 -0.102166325
-0.04709776 0.03557044 -0.050423466 -0.10460193 -0.13087444 -0.0034315577 0.017590405 0.021358013
-0.029082676 -0.10941289 0.019063126 -0.022115907 0.019772513 -0.064701006 -0.04684506 0.012494864
-0.025916463 -0.03556389 -0.031250376 -0.08675517 0.070659794 0.06898065 -0.037626624 -0.12475728
-0.13544482 0.010073812 0.12023458 0.076061614 -0.17040509 -0.06545848 -0.022852125 -0.09483938
0.13875566 -0.24190986 -0.029490327 -0.04219378 -0.10213404 0.15019087 -0.03358121 0.13686737
0.2234845 0.07642427 0.2835006 -0.004954654 0.11833553 0.11659342 -0.16384007 -0.2386036
-0.308444 -0.5394852 0.071992226 0.13379432 -0.1487596 -0.12962754 -0.2571951 0.051232345
0.17481115 -0.02049579 0.043677192 -0.11903324 0.101472594 0.15112032 -0.010427144 0.14152549
0.022446126 0.23658158 0.12987089 0.20412225 0.06432858 -0.06125284 0.093956806 0.076818384
-0.04902069 -0.12595633 -0.08471627 -0.033545665 0.05234564 0.047004886 -0.088203505 -0.066778235
-0.033155195 -0.051011305 0.00044505292 0.079091206 0.043014307 -0.08302376 -0.11167996 -0.08588504
0.15775166 0.050205138 0.10756701 -0.09172043 0.023938462 0.13135625 0.017093115 0.17059143
0.18232425 -0.122235745 -0.07581129 0.06663112 0.054772895 0.060442716 0.07219945 0.002480786
-0.050846927 -0.008548411 -0.038519386 0.16404827 -0.105621316 0.038982842 -0.08132989 -0.110756025
0.07086071 -0.10792349 0.23897934 0.15348227 0.09805146 0.08276973 -0.01566012 0.16083659
0.13570978 -0.027083058 -0.06928163 0.07362712 -0.06621271 -0.06922432 -0.058778524 0.010290136
0.119300656 -0.073469214 0.026328977 0.18535976 -0.012294798 0.121354505 0.04742387 -0.11620557
0.092922546 0.02306011 0.05075735 0.05146874 0.100508645 0.4154534 0.21182887 0.0772835
0.023541177 -0.16512802 -0.049456973 0.03633302 -0.025250742 -0.17113765 -0.020219976 -0.08368694
-0.0033586079 -0.062169593 -0.17738548 -0.04650588 0.012557935 -0.037517134 -0.0992134 -0.168839
0.010297406 -0.06456264 0.012753388 -0.041274816 -0.0737477 0.077859424 0.05448502 0.01655321
0.043382674 0.027399592 -0.058211785 -0.07227343 0.028728968 -0.027066635 -0.08733962 0.12626165

StatefulPartitionedCall/sequential/conv2d_1/BiasAdd/ReadVariableOp:0 f4 [64]
00000000: c575 7b3e 089a b0bd dbed 1c3d 892d 783c
00000010: eaf5 c2bb 2565 b43c b68d 2ebc 35b6 803d
00000020: 0b70 663c 893e 2dbe d88e 1b3e 4a51 7f3d
00000030: b2af a0bd 2928 5e3d 9e1f 293e 7097 b23d
00000040: d064 e7bb 026e 413d abde 6c3e b22e 023c
00000050: f191 f6bd 15cb 403d 8617 32bd 111e 3abd
00000060: 1f0e 1c3e 4c88 0a3e fb97 f6bb d555 ec3d
00000070: 925f 3cbd 58f1 ae3d aa1f fe3d 427d aa3d
00000080: 6cee a13d f4a9 0bbe 5897 d23c e823 933e
00000090: 6d21 f7bb b012 9abb 45f0 833c ccac 9c3d
000000a0: 9d39 553b 5121 d33d 9e5b d53d 849b ae3d
000000b0: ea04 41bc 526f a83d 0988 dd3d 3d52 6d3e
000000c0: 5940 05bc 5491 ac3d 0afb 303e 5c8d 243e
000000d0: b592 b03d 69e2 453e 3e82 4b3e a02d 68bc
000000e0: 9000 3dba 6fce 0cbe 12f7 d4ba f4c6 583d
000000f0: 5df5 803d c5c8 aabd aae4 ed3d 762e 22bc
0.24556644 -0.08623129 0.038312774 0.015147575 -0.0059497254 0.022020886 -0.010653904 0.06284753
0.014064799 -0.16918387 0.1519121 0.062333383 -0.07846011 0.05423752 0.16515967 0.08720291
-0.0070615783 0.047224052 0.23131816 0.007945703 -0.12039555 0.047068674 -0.043479465 -0.04543883
0.15239762 0.13528556 -0.0075254417 0.11539809 -0.04598958 0.085421264 0.12408383 0.08324672
0.079068035 -0.1363905 0.025706932 0.28738332 -0.0075418265 -0.0047019348 0.01610578 0.07650146
0.003253556 0.10309089 0.10417865 0.08525756 -0.011780957 0.08224358 0.10816962 0.23175903
-0.008133017 0.08426157 0.17283264 0.1606955 0.08621732 0.1932465 0.19873902 -0.014171034
-0.00072098617 -0.13750623 -0.0016247949 0.05292411 0.06296799 -0.08339075 0.1161588 -0.009898772

StatefulPartitionedCall/sequential/conv2d/Conv2D/ReadVariableOp:0 f4 [32, 1, 5, 5]
00000000: 0feb c33c 08e6 86bb c803 193d 29c4 a63d
00000010: 741b c23c 31fc e23b 7e08 563d 3cad 5fbc
00000020: a12d 1f3c b43a 993d c5c1 6cb9 e8ae 883d
00000030: f4f4 91bc 29e3 bfbc d084 383b cb2c acbc
00000040: 3b02 3bbd 8805 f63c a184 b4bc 8d18 5b3d
00000050: 3f56 89bc e2f3 953c db43 8b3d db57 bf3d
00000060: ca6c 9c3d 2f4e 43bd 9148 b83c 30e4 863d
00000070: e3a4 c73c a45b 61be f3bf 15bc 4097 503c
00000080: 8334 0f3e 008d 85bd cf1a 77be fb2d 993c
00000090: c5a6 a53d bb11 c13d 7e22 40bb 0e03 71be
000000a0: 727d c43d e6e3 173e eb28 043d 119f 643d
000000b0: e258 c3bd 119a e73d a3c9 ec3d d377 e73c
000000c0: aa46 c93c ad5f 42be c6f1 9aba b3e8 88bc
000000d0: f902 6dbc cade e2ba 3678 ecbc a02d f9ba
000000e0: b9c1 a53b 61a7 f4bc 1454 f83c 385a 64bd
000000f0: 761c c9ba d1c4 853c 0971 ddbb f93a 74bd
00000100: ddb9 b6bc 54a6 cbbd 385a bbbd 5257 c8bd
00000110: d7d9 6dbc ef2a 56bd 1136 da3d bd81 b53d
00000120: cf15 023e 96d2 263e 2041 b53d 51f7 7e3d
00000130: 9d98 863d 94d4 893d e394 4b3d 50c7 db3c
00000140: a3e2 24bd 439b b7bc e8f2 6f3d 2857 763d
00000150: 7994 36bd 87a8 6bbc 3286 39bd 54f6 2ebc
00000160: 03e7 f3bc dfcc 5f3c 6bb5 f73c dddf 84bd
00000170: 807a 923c 34c4 83bd eef1 5abc 849d 4d3b
00000180: 9349 163d a36d 833d 3ff9 ad3d de87 363d
00000190: b71a a1bd 37f7 203e d3f9 2abd 325b a8be
000001a0: d930 7bbe 0f00 20be 724b 363e d046 093e
000001b0: 4eab 4c3e 0c8e 16be f37e ad3d dfc6 01be
000001c0: d373 82bd a984 2d3e 4f0e db3d b2fc 803d
000001d0: e49a 7abe 3455 243e 5f81 b0bc b60c a43d
000001e0: f428 e33d 4cf7 5dbe 6195 103e cc0c 9a3d
000001f0: 5aa4 02be dc63 b03c 1aa3 88bc f7ee 15be
00000200: 66df 0b3d 2852 3f3e cfb7 693d 43ff 13be
00000210: 95a3 88be cb39 003e 8073 4b3e 5d02 f3bc
00000220: f44b 0dbd f5fa 22be 7082 da3d 480c c73d
00000230: 2ac7 c4bd 12d7 95bd 7551 58be 4c0a 153e
00000240: f758 753e 4da5 e03c 773a 25bd 8020 80be
00000250: 768b 383e edc9 4d3d e881 10be 3aff ed3c
00000260: 0aee 97be 8ecf afbe e822 24be 6d2e c1bd
00000270: 7bea e0bd 7328 fdbd 436d 053c f6ba 0f3e
00000280: 5243 323a b858 f73d bd34 663d 1fd0 d2bd
00000290: 2769 86bc 1b2c b2bc 9961 473c 3175 7c3e
000002a0: 2169 ea3d ba6a c93d 2eee f5ba 86c4 073e
000002b0: 9c64 173e b1cc 093e 4a36 063c ae1e 92be
000002c0: 5934 5cbd aeb1 f0bd 79b4 d6bd 07c3 89be
000002d0: a208 42be c42d 843d 8088 303d e494 033d
000002e0: b9ab 33be a684 313e 64b0 c9bc 7f1d 8e3c
000002f0: 834e 683e 0e86 b03b 0062 ca3d fab8 ffbd
00000300: 760f 013d d751 363e c984 7a3c 46b0 6c3e
00000310: bbfe 6ebd b3be e53c c7ab 5dbd 9a0d 0e3e
00000320: 8cf9 173b dd96 5abe 9a1e fbbe 97b7 60be
00000330: 89de e6bc 43db 573d fa79 b0bd 2855 d1be
00000340: 356d 2ebe c744 8c3d c4d1 f33d e558 dbbc
00000350: 47a5 1abe fc68 9c3d 26aa ffbd 3c68 503e
00000360: 3ae4 7cbc fe2a 57be eb82 183d 3b2e 443d
00000370: 8a66 393e 05e2 fd3d 70de 61be 8a6e d7bd
00000380: 2719 223e 7e11 51bd 3ee0 89bd f4b7 52be
00000390: f10e 0d3e 0c5a d1bd 78d6 e43c 7f4a ba3d
000003a0: 2839 e8bd f81b 5b3d 9917 3abd f27d 973c
000003b0: 15d3 003d 220e 74be e193 f1bb f2de 283d
000003c0: c37f 883d a1e9 023e 4db5 73be 9cd4 f93d
000003d0: abac 40bc 6289 07bc 8cc4 743e 8988 0d3e
000003e0: 2526 803e 09aa 33be b51a 623d 613a 63bd
000003f0: 628e 67bd 4c58 ac3d 15f8 99bd a86e 673d
0.023915796 -0.0041167773 0.03735712 0.08142883 0.023694731 0.006927036 0.052254193 -0.013652142
0.009715469 0.074819 -0.00022578899 0.06673986 -0.017816998 -0.023423748 0.0028155334 -0.021017453
-0.045656424 0.030031934 -0.022035899 0.05349021 -0.016764758 0.018304769 0.06800052 0.09342929
0.07637937 -0.047681984 0.02249554 0.06586492 0.024370616 -0.22007614 -0.009140003 0.012731373
0.13984875 -0.06521034 -0.2413132 0.018698683 0.080884494 0.0942721 -0.0029317434 -0.23536322
0.09594239 0.1483303 0.032265585 0.05581576 -0.095384374 0.11308683 0.11561897 0.028255379
0.024569828 -0.1898181 -0.0011821322 -0.016712522 -0.014466041 -0.0017308828 -0.028865915 -0.001901079
0.005058494 -0.029864969 0.03031353 -0.0557501 -0.0015343565 0.016329201 -0.0067578596 -0.059626553
-0.022305423 -0.09943834 -0.09148067 -0.0978228 -0.014517269 -0.05228704 0.106548436 0.08862636
0.12703632 0.1629127 0.08850312 0.062247578 0.065720774 0.06729999 0.049702536 0.026828438
-0.0402552 -0.022412902 0.058581263 0.060141712 -0.04457519 -0.014383442 -0.045293994 -0.010678846
-0.02977324 0.013659685 0.030237874 -0.06488011 0.017880678 -0.06433907 -0.013363345 0.0031374404
0.03669126 0.06417396 0.084948055 0.044563167 -0.078664236 0.15719305 -0.041742157 -0.32882077
-0.24530353 -0.15625022 0.17802218 0.13405919 0.19987223 -0.14702624 0.08471479 -0.1267352
-0.06369748 0.16945137 0.106960885 0.06298198 -0.24473149 0.16048127 -0.021546064 0.08010237
0.110917956 -0.21676368 0.14119484 0.07521972 -0.12758008 0.021531992 -0.016679335 -0.14641939
0.034148596 0.18683684 0.05706006 -0.14452843 -0.26687303 0.12522046 0.19868279 -0.029664213
-0.034496263 -0.15916045 0.1066941 0.09719139 -0.096083 -0.07316412 -0.21124823 0.14554709
0.23959719 0.027422572 -0.04033896 -0.25024796 0.1802195 0.0502414 -0.14112055 0.029052366
-0.29673797 -0.3433804 -0.1602894 -0.09432683 -0.109822236 -0.12361231 0.008143726 0.14036164
0.00068001926 0.12077469 0.05620264 -0.10293602 -0.016407562 -0.021749547 0.012169265 0.2465408
0.11445833 0.098348096 -0.0018763 0.13258561 0.14784473 0.1345699 0.008191654 -0.28539032
-0.05376086 -0.1175264 -0.10483641 -0.26906607 -0.18948606 0.064540416 0.043098927 0.032124415
-0.17545976 0.17335758 -0.024620242 0.01734805 0.226862 0.0053870743 0.09881973 -0.12486453
0.031508885 0.17804657 0.0152904475 0.23114118 -0.0583484 0.028045034 -0.054118898 0.13872376
0.0023189513 -0.21346612 -0.49046785 -0.21945034 -0.028182285 0.05269934 -0.08617015 -0.40885282
-0.17033847 0.06849056 0.11905244 -0.026775787 -0.15102111 0.07637212 -0.12483625 0.20352262
-0.015435273 -0.21012494 0.037234228 0.04789565 0.18105522 0.123966254 -0.2205751 -0.105191305
0.15829907 -0.051042072 -0.06732224 -0.20577985 0.13775231 -0.10222253 0.027934298 0.0909624
-0.11339027 0.05349347 -0.04543266 0.018492673 0.031451304 -0.23833516 -0.007372365 0.041228242
0.066649936 0.12784435 -0.2379963 0.12198755 -0.011759917 -0.008272501 0.23903102 0.13821615
0.25029102 -0.17545332 0.05520125 -0.055475596 -0.05653227 0.08415279 -0.07518021 0.056502014

StatefulPartitionedCall/sequential/conv2d/BiasAdd/ReadVariableOp:0 f4 [32]
00000000: c16b b4bd 355a 1f3b 9639 7bbb 5dc3 9bbd
00000010: cefa 053d 5e11 3d3b 4504 6f3d f6e7 a53d
00000020: 8363 1f3e 9f75 90bc bb63 75bc c4b1 383e
00000030: 785c 11bb 25fb 2a3e 0408 0abc 02f0 dcbb
00000040: c68a 74bc 249a 053e 423e 19bd 786b dcbb
00000050: 2c39 7dbc 2545 083e d0cd 933b a68f 06bd
00000060: bd10 80bc 8c28 793c 9ebd 05bb 6506 00bc
00000070: 0cf3 9c3a b0cf bcbc 8b42 acbc f742 10bc
-0.08809615 0.0024315242 -0.0038333884 -0.07605622 0.03270989 0.0028849463 0.05835368 0.08100884
0.15565304 -0.017634211 -0.014977391 0.18036562 -0.002218036 0.16697367 -0.008424763 -0.0067424783
-0.014925664 0.13047081 -0.03741289 -0.0067266785 -0.015455525 0.13307627 0.0045106187 -0.032851838
-0.015632981 0.015207421 -0.002040721 -0.007814025 0.0011974289 -0.023048252 -0.021027824 -0.008805028
